tone_cnn_2.pth (torch, 637099 bytes, 28 tensors)

conv1.weight f4 [32, 2, 3, 3]
00000000: a10d 263e 3640 1fbd c94f 0f3e c35e 613d
00000010: 3c12 a23c cc2b 57be d418 32bc 11cf 2e3e
00000020: 8805 8ebd b720 c73d d329 00be 7ca7 103e
00000030: beb2 613b cb32 783c 861e 0b3e f287 f5bd
00000040: a1a6 8d3e 1547 3f3e b77d 6bbe 1dd4 383d
00000050: e0c7 f1bd a117 013e 60de 00be 7a84 3dbe
00000060: 4b14 0a3e 9e28 51be 1ea0 863b 0256 e6bd
00000070: 1966 a2be c8e2 06be deb4 5e3e a523 d03d
00000080: d08f b1bd d0a3 b03c 9a99 5bbc 84ff 8c3d
00000090: e1be 253d 71a0 52bd 2e3f 09be 0185 89be
000000a0: bab8 543e 7829 64be 3848 1dbe 3ace 5cbe
000000b0: 0c7d 3ebe f4ca 87bc 3bcb c1bd 2780 203e
000000c0: 7e73 2a3d cb78 08bd 3429 73be 7d03 dabd
000000d0: fa73 6fbe 8296 243e 1492 38be 33f0 72be
000000e0: a600 7abd bdc8 4e3e 414c 273e 1fdd d6bc
000000f0: 6bd3 5bbe 05ee 763e fc6f 37bd 0474 1d3e
00000100: 3d61 16be de6e 923c b2d6 9cbd 4715 5cbc
00000110: 4792 c73b f7f8 89bc 14f5 a4bb 0e16 e5bd
00000120: aa45 c5bd bd6e d13d 5b76 283e e82f 1ebe
00000130: ee4b 81bd ca5b f63c 3f61 743e a4f4 0c3e
00000140: a715 33be 838a 49bd ae8c af3d 9955 4cbd
00000150: 58e3 e4bd 38ba a7bd f785 25be c2bd 18be
00000160: 24e8 1c3e bf62 47bc ce53 3cbd 8ef9 39be
00000170: 704c c43c 29dc 23be a672 d63d 2a90 823c
00000180: 7724 f2bb 9c14 1dbe af5d 2e3e 5d58 c8bd
00000190: c94b e23d 385e d4bd acb8 63be d84d e83d
000001a0: 6da0 4bbe d9a2 5dbe 7d79 163e 917a 0a3d
000001b0: 7381 b3bd dfde 313c 5eb7 4dbe 43fc 21be
000001c0: 7585 023e 8222 7cbc 1111 a43d 5cff f13c
000001d0: 3ba4 183e ea66 f03b d742 903d da3f 3bbe
000001e0: 067c 073e c8b2 693d c36c 983e 9764 23be
000001f0: 563f da3c de2b 113e 5447 463e 005f 2f3e
00000200: 93ce e4bd 4288 17be 6052 d5bd 895f 43be
00000210: 012a 42be 34b1 23bd f4df 1dbe 5cfa 8f3d
00000220: 1739 a6bd 6491 7b3d cdc2 0dbe 00f2 18be
00000230: 275b 9fbd 4498 80bd 124b 6fbe c006 183d
00000240: 6461 71bd 2960 433e 0772 29be 435b 0d3c
00000250: 8396 93bd f867 10be 026a 73be 40cb 45be
00000260: f716 eabd aac9 20be fd3d 5dbd 2b55 a8bd
00000270: 30ff e4bd b328 533e 8c8f 9abd fa9c a6bd
00000280: f27d c0bd 3a35 11be 5f12 1abe fe26 353d
00000290: 6b4e 21be ef67 3abe a6a0 1dbe 4a79 86bd
000002a0: 869d 693e 2ad1 83bd 97c2 0c3e 22c6 5ebe
000002b0: 5844 11bb f424 363d d490 8c3d 8bdd 5bbe
000002c0: 2b7b 9dbd 4ce4 cb3d f736 07bd aab8 453e
000002d0: e6b7 e93d 8b27 9c3d 5d90 2abd d962 43be
000002e0: 1a1a 153e d3c3 55be 59d9 cb3d d7a1 c5bd
000002f0: cc95 6c3e 5e55 663e dfb4 4d3e d486 743e
00000300: 0611 6abe 4dde 3c3e 9f4e 39be ebf6 ec3c
00000310: 18bd 9ebd 42fd 403e 64ed 543e 315e 3c3e
00000320: e259 01be 4598 5a3d b051 2fbe a1d1 88be
00000330: 48f8 1d3e cf0b 03be edd2 e53d e0e4 f03d
00000340: 9349 413e 55ee 5bbd f797 233e a6b3 9dbd
00000350: 29b8 d8bd 607c b8bd f8d6 46be c890 7abb
00000360: 5156 56bd 46c9 10be 7a03 a9bc d56b 5bbe
00000370: e283 a9bd 1282 20be e14b 3ebe 3dd0 213e
00000380: 17fe 1fbe 54cc ffbd 20c8 af3c 4768 c73d
00000390: fea7 07bd 544c 9dbd a9e1 51be 2bc9 7dbe
000003a0: 7668 183e 63cb 91be 811a 42be 668f 93bd
000003b0: 5927 bebd c5b1 58be 50d5 67be 114a 45bd
000003c0: ca28 67bd 110d 8a3d 09cc ca3d bfc1 273e
000003d0: 0e84 4f3d ea94 62be 2ddf 95bc dd97 a8bd
000003e0: 06d2 aa3d 1e1b 71be 0e92 3b3e 2485 a8bc
000003f0: f07a 5bbe 0a1e 11be a1f7 31be 13ba 13be
0.16216137 -0.038879596 0.1399528 0.055022012 0.019784085 -0.21012801 -0.010870177 0.17071177
-0.06934649 0.09723037 -0.12515955 0.1412639 0.0034438814 0.015148829 0.13585863 -0.1198882
0.2766619 0.1867946 -0.22997175 0.045124162 -0.11805701 0.1260667 -0.1258483 -0.18507567
0.13484304 -0.2042565 0.004108443 -0.112468734 -0.3171852 -0.13172448 0.21748683 0.10163049
-0.08670008 0.021562487 -0.013403321 0.06884673 0.04046524 -0.05142254 -0.13403007 -0.26859286
0.20773593 -0.22281444 -0.1535958 -0.21563044 -0.18602389 -0.016576268 -0.09462591 0.15673886
0.04161405 -0.033318322 -0.23746186 -0.106451966 -0.23384085 0.16073039 -0.18024474 -0.23724441
-0.061035775 0.20193763 0.16337682 -0.026228486 -0.21467368 0.24114235 -0.04478453 0.15376288
-0.14685531 0.017875131 -0.076581374 -0.013432807 0.0060904357 -0.016842349 -0.0050340984 -0.11185847
-0.09632428 0.102262 0.16451399 -0.15447962 -0.063133106 0.030073065 0.23865221 0.13765198
-0.17488728 -0.04920436 0.085717544 -0.04988632 -0.11176175 -0.08189815 -0.16164385 -0.14916137
0.1532293 -0.012169539 -0.04597836 -0.18161604 0.02396223 -0.16001953 0.10471086 0.015937883
-0.007389601 -0.15339893 0.17027925 -0.09782479 0.11049611 -0.10369533 -0.22238415 0.113429725
-0.19885416 -0.21644153 0.14694782 0.033808295 -0.08764925 0.010856359 -0.2008948 -0.15818886
0.12746222 -0.015389087 0.08011068 0.02954071 0.14906399 0.007336487 0.07043999 -0.18286076
0.13230905 0.057055265 0.2977048 -0.1595634 0.026641529 0.1417689 0.19363147 0.17126083
-0.111722134 -0.14798072 -0.104161024 -0.19079413 -0.18961336 -0.039963916 -0.15417463 0.07030174
-0.08116358 0.061417952 -0.13843842 -0.14936066 -0.07781058 -0.06279042 -0.23368481 0.037115812
-0.05893077 0.19079651 -0.16547404 0.0086277155 -0.07206442 -0.14102161 -0.23770908 -0.19315815
-0.114301614 -0.15701929 -0.054014195 -0.082193695 -0.11181486 0.20620994 -0.07546911 -0.0813541
-0.09399022 -0.1418046 -0.1504607 0.04422664 -0.1575257 -0.1820371 -0.15393314 -0.06566103
0.22813997 -0.06436379 0.13746105 -0.21755269 -0.002216598 0.044468835 0.06863561 -0.2147123
-0.07689508 0.099556535 -0.033011403 0.19308725 0.11412029 0.0762473 -0.04164158 -0.19080676
0.14560738 -0.20875482 0.09953565 -0.09650009 0.23104018 0.22493502 0.20088528 0.23879558
-0.22858056 0.18444176 -0.18096398 0.028926333 -0.077509105 0.1884661 0.20793682 0.18395306
-0.12631944 0.05336787 -0.17121005 -0.26722434 0.15426743 -0.12797473 0.112218715 0.117624044
0.18875723 -0.053694088 0.15975939 -0.07700281 -0.10582001 -0.09008098 -0.19417942 -0.003823327
-0.05232841 -0.1413928 -0.02063154 -0.21427853 -0.08277108 -0.15674618 -0.18583633 0.15802093
-0.15624271 -0.12490144 0.021457732 0.09736686 -0.033119194 -0.07680574 -0.20496239 -0.2478377
0.14883599 -0.28475484 -0.18955423 -0.072050855 -0.09284849 -0.21161564 -0.22639966 -0.04816634
-0.056435384 0.067407735 0.09902198 0.16382502 0.050663047 -0.22127119 -0.018294895 -0.082320906
0.0834084 -0.235455 0.18317434 -0.020571299 -0.21433616 -0.14171615 -0.17379619 -0.1442645

conv1.bias f4 [32]
00000000: 2b1a 12bd 5a72 513e 0266 d8bd 8b40 473e
00000010: 6d9b 513e 418e 8ebd 39c0 eebd 16ee 613e
00000020: c1ae 393e 0390 46bd b3c4 193c c707 09bc
00000030: a9dd d7bc facc 3e3e c27a 4e3e 6183 54be
00000040: 1b1e 49bd 7b9f dfbc 2c12 4f3e 5b63 1abe
00000050: 19c0 5a3e 8b23 573e 9cb4 d83c e16c 603e
00000060: f0f2 a83d 3c64 de3c 2f12 ed3d 7b8b d03d
00000070: a386 773e 9743 49be 548a aebd 6343 dcbd
-0.035669487 0.20453778 -0.105663314 0.19458215 0.20469446 -0.069607265 -0.11657757 0.22063479
0.1813307 -0.048477184 0.009385276 -0.008363671 -0.026350813 0.1863288 0.20164016 -0.20753242
-0.049100976 -0.027297726 0.20221776 -0.15076964 0.21362342 0.21009652 0.026453309 0.21916534
0.08249462 0.027147405 0.11575734 0.10182854 0.24172454 -0.1965469 -0.08522478 -0.107550405

conv1_bn.weight f4 [32]
00000000: 0854 833f 65e4 733f 1f93 843f c09d 743f
00000010: 11df 7f3f bdb7 673f b6fb 6c3f bf4f 783f
00000020: 84a2 7c3f 961e 753f d214 813f 931f 803f
00000030: b54e 7f3f f578 7e3f 0cf0 733f ed8b 903f
00000040: 34b4 763f 5e14 873f 91d6 783f b949 803f
00000050: 6489 793f d651 753f 4a06 7f3f a46c 733f
00000060: 5704 783f 8d06 763f 1e11 823f dd6d 7d3f
00000070: 73e3 823f 817d 8e3f 787b 843f 902b 813f
1.0260019 0.9527038 1.0357398 0.9555321 0.9994975 0.9051474 0.9257158 0.9699668
0.9868548 0.95749795 1.0084479 1.0009636 0.9972947 0.99403316 0.9528816 1.1292702
0.9636872 1.055309 0.972024 1.0022498 0.97475266 0.95827997 0.9961897 0.9508765
0.9688162 0.96103746 1.0161474 0.98995763 1.0225662 1.1132051 1.035018 1.0091419

conv1_bn.bias f4 [32]
00000000: 9924 c03c 7958 0ebd 8678 a4bd bec8 edbd
00000010: db7e 283d ab08 a1bd 1c9e 233d 16ca dcbd
00000020: b4c5 b9bd f091 cebc 38a4 043d 52c8 ffbb
00000030: 1428 6fbd 2dd3 3cbd cb51 33bd 0da9 bb3d
00000040: 78cc bbbd 91a1 eb3c 0311 09bd 94c5 903c
00000050: 418f 35bd 9f73 30bb 7074 843d b408 3fbd
00000060: 2a21 8bbd 85c6 d7bc 99da c33a 2c48 76ba
00000070: b0c7 50bd d065 16bc 51c6 bbbc 4ec4 9f3d
0.023454951 -0.034752343 -0.080308005 -0.11610554 0.041136604 -0.078629814 0.039945707 -0.10780732
-0.09070912 -0.025216073 0.032383174 -0.0078058625 -0.05838783 -0.04609983 -0.043779176 0.09163103
-0.09169859 0.028763564 -0.03346349 0.017672338 -0.04432607 -0.0026924384 0.06467521 -0.04663916
-0.06793435 -0.026339779 0.0014942467 -0.000939491 -0.050971687 -0.009179547 -0.022921713 0.07801114

conv1_bn.running_mean f4 [32]
00000000: 076e f1bf 7668 5340 d2a7 b03f 3ca1 eb3f
00000010: 57ca 6abe 403c 9e3f 4717 353f b758 a93e
00000020: 0c23 1940 4da0 a93f 88d9 43c0 9aba c1bf
00000030: b512 f23f 6f3d e13f e1db 6140 95bc f3bf
00000040: 7585 533f 494a 0bbe 3dec 2640 d2c2 13bf
00000050: 1cd5 c93f 7185 19be d1a6 85bf 7418 8e3f
00000060: e76e c63f 4f12 28bf 772e e0bf 7366 b7bf
00000070: 5355 883e de84 6fbe 085d e5be 7622 5bbe
-1.8861703 3.3032508 1.3801215 1.840858 -0.22928749 1.2362137 0.70738643 0.33075497
2.392764 1.3252045 -3.060152 -1.5135071 1.8911959 1.7596873 3.5290453 -1.9041926
0.82625514 -0.13602556 2.6081688 -0.5771915 1.5768161 -0.1499231 -1.0441533 1.1101213
1.5502595 -0.65652937 -1.751418 -1.432814 0.26627597 -0.23390529 -0.4479754 -0.21399865

conv1_bn.running_var f4 [32]
00000000: 55ff 8143 0e6f 4b44 90c6 9443 c2f4 9043
00000010: ad7f 0d43 04bc e742 c254 8043 837c e443
00000020: b851 cd43 2ceb 4b43 40af 7544 807b c043
00000030: 02fa c743 0434 2f43 b38d 8044 8c7d 9b43
00000040: 3c1e 6242 0f57 8f41 9808 c743 ede1 8241
00000050: 6eb4 fe42 18a8 9342 3942 0443 0e84 8442
00000060: 9306 2143 8182 ae42 f247 9543 06b3 5f43
00000070: df72 f840 506a 2441 c808 9a41 45a8 0a43
259.99478 813.7352 297.55127 289.91217 141.49873 115.86722 256.66217 456.97275
410.63843 203.91864 982.7383 384.96484 399.9532 175.20319 1028.4281 310.98083
56.529526 17.91751 398.06714 16.360315 127.3524 73.82831 132.25868 66.25792
161.02568 87.25489 298.56207 223.69931 7.7640224 10.275955 19.254288 138.6573

conv2.weight f4 [32, 32, 3, 3]
00000000: 5d05 1fbd e601 f73b 6721 a3bc baab 8ebc
00000010: 7dc3 2cbd 01d7 a93c c01b 0c3d 6286 c83b
00000020: 00ce b7ba 19c6 913d b879 66bb a3d7 9cbb
00000030: b3b6 d43c d687 e73b 44bf 9fbd b710 2d3c
00000040: de67 40bb 0c84 a7bc 9653 7d3c 6c82 89bd
00000050: bf1c c5bd 7e1f 6ebd 8926 9bbd 357c 90bd
00000060: 089e 82bd 6581 4c3c 48df ae3c 21e4 803d
00000070: 719d 873d 39ee 2fbd e2e3 033d 0e66 59bd
00000080: 7f17 f53b 3cb6 a6bd f9ef acbc 048a 4ebc
00000090: 3543 3d3c 4108 43bc faff 4dbd e9c6 0f3d
000000a0: 4f75 e33c 6ac0 c03c 176e 2b3d 3d26 12bc
000000b0: 0fa4 c2bc 7b37 23bd 8de3 c13b d3a0 b73c
000000c0: 9440 25bd 91fc 083b a593 9ebd 8732 f73c
000000d0: 75af 4bbd 09f6 293d 492f 9c3d f081 c03b
000000e0: 4af8 eabc 38a9 d1bb a470 3ebb 9ac8 bfbd
000000f0: 151f 453d 9bab 39bc 305e ccbb f225 323c
00000100: f69b 523d 2ad4 3abd 404c 65bd 9215 2b3c
00000110: 5c67 92bc 9be1 473d 364f 1abd 0199 bebc
00000120: c8b3 43bd e581 b33c fee5 f1bc e79d 89bd
00000130: 2724 383c 4738 a7bd 2640 2cbd 8e60 313c
00000140: cb85 13bd dbbb 0e3c ee7a 163d 8167 b0ba
00000150: 65b6 3dbd bad2 fb3a 98df b13c 5eb3 60bc
00000160: e7fc 773c 8bd1 de3c afbe 6dbd 90c5 b23c
00000170: 88e1 043d 7707 f7bc 1ce0 d33c e86f 293d
00000180: 3634 113d 37b3 fc3c ec18 b63d 6b19 383c
00000190: aaec a73c bb27 393d 1b15 2a3d f162 ec3c
000001a0: a12b c93c b42e 323d 9099 45bc 8f1c 90bb
000001b0: 806c b5bb a244 a5bc 8c9f 9c3a 62d1 89bd
000001c0: 32c5 b2bd f0ed 73bd 3d7f 27bd 0861 e73c
000001d0: 74bd cdbd fb9b 33bd d7db 4b3c 0002 89bd
000001e0: 23ab 28bd d247 2cbd d9cb 93bd 63c6 083c
000001f0: df56 42bd 71ea 29bb 0c8d bc3c af61 6b3d
00000200: 3cf6 eabc 936a b6bc 01e0 80bc a9ea 85bd
00000210: 4f1a 62bb ace1 86bd a210 4dbd b40a 5d3d
00000220: 10dd 993d 732c 1c3d 998b f43d 2243 063e
00000230: a05f e73d b556 bcbd 22d3 b4bd 7280 7f3c
00000240: dcad 203d 6e66 5d3d 190c 573c 48d2 a53c
00000250: 3e53 59bd c0e8 63bd 12a8 5d3d 2143 f13c
00000260: b0cb d03c 75b6 bc3d 5fe2 66bc 9633 3dbc
00000270: e52d 873b d0e6 b33d 4736 bf3d 7cfe bd3c
00000280: 6fc6 673d 9c0b 21bd 18b3 edbc 1898 96bc
00000290: 693b 59bd c999 96bd 9ce2 783c d41b a5bd
000002a0: 7d14 653c 0235 3fbd 1087 30bc eb9b d83d
000002b0: 48c9 a53c e043 f73a 9978 84ba 842d adbb
000002c0: 1b25 ae3c 5de0 6e3c 35f6 6c3d ef05 323d
000002d0: 8d6e 17bd 9ed2 31bc 06a0 eabc 1e0f 57bd
000002e0: 2a36 55bd 164f c93c e507 683c e59e 85bd
000002f0: 47fc ab3c fffa 85bd 515f 8abd c780 7dbd
00000300: 5318 29ba 1245 1f3d 8e3d a23d dd1d 913d
00000310: addd 003d 55f9 2c3b ccee 71bc 4297 803c
00000320: d414 873b 5e70 f53c 7127 d33c 95a0 7fbd
00000330: eef3 073d b9ce 7c3c a530 94bc 086d 173d
00000340: d6a7 a03c b46b 43bd 9098 b53c 2aa3 903b
00000350: b906 30bd a873 27bd d001 3b3d 337d 213d
00000360: 054f 55bb 86cf 393d d79d 60bd e0fa 973c
00000370: 80f1 af3b c22f 60bd e756 05bd 9e5f 4c3d
00000380: a4e7 573d 897a 03bd 2b66 32bd 00d0 22bd
00000390: 2e2b 833d 6fdf aabc d299 c5bb e780 2fba
000003a0: 9106 de3d 7631 5f3d 4a32 5cbd 7d1d 3b3d
000003b0: 550a 813c 4fc4 023d 2af7 a13d ba41 2bbb
000003c0: 96ae cc3d 76b9 803d 75f5 cd3b 4233 d3bc
000003d0: d4f3 d13c ecd4 dfbc e1db 9c3b eeb0 76bc
000003e0: df8b ab3d af69 713c 08c0 e93c 9106 683c
000003f0: 2743 82bd 6fbb 523d a7d1 9abc 8700 02bc
-0.038823474 0.007538068 -0.019913388 -0.01741587 -0.04217862 0.020732405 0.034206152 0.0061195353
-0.0014023185 0.07117862 -0.0035167765 -0.004786448 0.025966024 0.0070657535 -0.07800153 0.010563067
-0.0029358785 -0.020448707 0.015461823 -0.06714329 -0.096246235 -0.058135502 -0.075757094 -0.070549406
-0.06377798 0.012482022 0.021346703 0.06293512 0.066218264 -0.042951796 0.032199748 -0.053075843
0.0074796076 -0.08140227 -0.021110522 -0.012606148 0.011551668 -0.011903823 -0.050292946 0.035101805
0.027765898 0.02352925 0.041853037 -0.0089202495 -0.02375987 -0.039847832 0.0059170187 0.022415554
-0.04034479 0.0020902494 -0.07743005 0.03017546 -0.049727876 0.041494403 0.076262064 0.0058748648
-0.028682847 -0.0063983463 -0.0029058838 -0.093644336 0.048125345 -0.011332418 -0.006236814 0.010873305
0.051418267 -0.04561249 -0.05598092 0.0104421545 -0.017871551 0.04879914 -0.037673198 -0.023266317
-0.047778875 0.021912524 -0.029528614 -0.067195706 0.011239088 -0.08165031 -0.042053364 0.010826243
-0.036016267 0.00871178 0.03673833 -0.0013458581 -0.046316523 0.0019212582 0.021713063 -0.0137146395
0.01513598 0.027199527 -0.05804318 0.02182272 0.032441646 -0.030154927 0.0258637 0.041366488
0.035450183 0.030847175 0.08891472 0.011236529 0.020498592 0.045203906 0.041524034 0.028855773
0.024556937 0.04350157 -0.012060538 -0.0043979357 -0.005536616 -0.020174328 0.0011949404 -0.0672939
-0.08729018 -0.059553087 -0.04089283 0.02824451 -0.10045901 -0.043849926 0.012442551 -0.066898346
-0.041178834 -0.04206068 -0.07216615 0.00834808 -0.047446128 -0.0025927091 0.023016475 0.057466205
-0.028681867 -0.022267615 -0.015731813 -0.065388985 -0.0034500544 -0.06586012 -0.05006469 0.053965285
0.075128675 0.038128328 0.11940689 0.13111547 0.11297536 -0.091962256 -0.08829333 0.015594589
0.039228305 0.054052763 0.013125443 0.020241871 -0.0530579 -0.05564189 0.054115362 0.029450955
0.02548775 0.092144884 -0.014092057 -0.011547944 0.004125344 0.08784258 0.093365245 0.023192637
0.056585725 -0.039317712 -0.029016063 -0.01838307 -0.053035174 -0.07353551 0.015190747 -0.080619484
0.013981936 -0.04668141 -0.010774389 0.10576614 0.02023758 0.0018864833 -0.0010106742 -0.005284967
0.021257928 0.01457986 0.05785199 0.04346269 -0.036970664 -0.010853438 -0.028640758 -0.05250465
-0.052053608 0.024573844 0.014162038 -0.06524447 0.020994319 -0.06542014 -0.067564614 -0.06189039
-0.0006450463 0.03888423 0.07921897 0.07085774 0.031461406 0.002639373 -0.014766406 0.015697125
0.004122356 0.029960807 0.025775643 -0.062409002 0.033191614 0.015430146 -0.018089602 0.036969215
0.01961128 -0.047710136 0.022167474 0.004413982 -0.04297516 -0.040881783 0.045656025 0.03942604
-0.003254832 0.045363925 -0.054838028 0.018552244 0.005369365 -0.054733045 -0.03255358 0.049895875
0.052711144 -0.03209928 -0.043554466 -0.039749146 0.0640472 -0.020858495 -0.0060302997 -0.0006694928
0.10841096 0.05449053 -0.053758897 0.04568242 0.015751997 0.031925496 0.07908471 -0.0026131705
0.09994237 0.06285374 0.0062853643 -0.025781278 0.025628962 -0.027323209 0.004786954 -0.015056832
0.08376288 0.01473467 0.02853395 0.014161722 -0.063604645 0.05144828 -0.018898798 -0.007934696

conv2.bias f4 [32]
00000000: 8230 433d 9c09 b73b a25d 11bd 2186 443d
00000010: 75e9 cb3c 0e53 3c3c b244 503d a253 de3c
00000020: 7a7e 153d 2564 11bd b229 5f3d db4f e5bc
00000030: c6f3 24bc d2cd c8bc d032 50bd d952 f03a
00000040: 0228 f3bb 4141 2bbc 6e4f 4ebd 8841 5cbd
00000050: f5ee d73c db6c 043d fb44 fe3c 3c02 2f3d
00000060: 64c2 af3c a342 443d 8797 1dbd 4273 1abd
00000070: eb6f 46bb f9a8 07bd 081b 0b3d ba2c a5bc
0.047653683 0.0055858623 -0.035489686 0.047979478 0.024891594 0.011494411 0.050846763 0.027139489
0.03649757 -0.035495896 0.054483123 -0.02799218 -0.010067886 -0.024512205 -0.05082971 0.0018335237
-0.007420541 -0.010452569 -0.05036872 -0.053773433 0.02635906 0.032330375 0.031038752 0.04272674
0.021454997 0.047915112 -0.038474586 -0.037707575 -0.003027911 -0.03312013 0.033961326 -0.020162929

conv2_bn.weight f4 [32]
00000000: b1a8 873f c101 793f b85e 853f 895e 853f
00000010: 9d55 773f ecd4 7c3f f999 873f 6f66 803f
00000020: cfe3 763f 7120 813f e231 813f e348 833f
00000030: 4b4e 803f c652 723f d7e4 853f 68de 763f
00000040: 61e0 843f ae7f 7c3f e4f3 823f 6b19 843f
00000050: 88d7 783f 95c4 7b3f 6ac7 803f fcc7 7e3f
00000060: 3237 6d3f cfad 7c3f 6bbf 833f d985 733f
00000070: 9991 7b3f bbad 713f 5dc8 823f 1420 833f
1.0598356 0.972683 1.0419531 1.0419475 0.9661501 0.98762393 1.0593864 1.003126
0.9644136 1.0088025 1.0093348 1.0256618 1.0023893 0.9465755 1.0460461 0.96433115
1.0380975 0.98632324 1.023068 1.0320257 0.97203875 0.98346835 1.0060856 0.995239
0.92662346 0.9870271 1.0292791 0.9512611 0.9826904 0.94405717 1.0217396 1.0244164

conv2_bn.bias f4 [32]
00000000: 5e80 d93c 4173 c0bd 5031 ad3c 0485 04be
00000010: f5e1 d1bd e6ea ecbc 6602 993d 944b e4bd
00000020: c94b 0a3d 32f4 e1bb 5165 92bd 2d25 5fbd
00000030: e626 5fbd 0ea5 e9bd 5b72 da3c 940a a4bd
00000040: 6de6 53bd 802a 7ebc 2a3d 9c3c db8b ab3c
00000050: 33bb 8cbd 8bb3 debd 0f44 7cbd a2d5 303d
00000060: 6909 ebbd 5080 8fbd ff3b 443c 5ad7 26be
00000070: c6ee 07bc d67b a8bd ff71 35bd 881b 84bc
0.026550468 -0.09396983 0.021141678 -0.12941366 -0.10248176 -0.028920602 0.074711606 -0.11147228
0.03376368 -0.0068955654 -0.07148231 -0.054478813 -0.054480456 -0.11408435 0.026665857 -0.0800983
-0.051733423 -0.0155130625 0.019072134 0.020940712 -0.06871643 -0.10874089 -0.061588343 0.043172486
-0.11476404 -0.070068955 0.011977195 -0.16293088 -0.008296674 -0.08226745 -0.04429817 -0.01612641

conv2_bn.running_mean f4 [32]
00000000: f02c 123e 6700 b2be a945 11bd 91fe 603f
00000010: 57d8 913f 4d05 e03e 76de 82be 485b c1be
00000020: 5ee2 debd 7b37 4b3e dd05 753f 7890 6d3d
00000030: 1002 bdbe 03eb d13f 32f1 cabe 1636 03bf
00000040: 7a3e 2abe ea54 47be 168c 1cbe 4c28 b33e
00000050: 81f8 15c0 7e73 3b3f ff81 86bf 4981 5d3e
00000060: 9ba8 753f ebf4 8fbf 6ff1 c53e 8bf2 c83e
00000070: c2dc 7abf ba74 b5be fd57 95bf 5e2b 01bf
0.14274955 -0.34765932 -0.035466824 0.8788844 1.1394147 0.43754044 -0.2556035 -0.37764955
-0.1088302 0.19845383 0.9571207 0.057999104 -0.36915636 1.6399845 -0.39637142 -0.51254404
-0.16625395 -0.19465986 -0.15287814 0.34991682 -2.3432925 0.732231 -1.0508422 0.2163135
0.95960397 -1.1246618 0.38660762 0.39247546 -0.979931 -0.35440618 -1.1667477 -0.504568

conv2_bn.running_var f4 [32]
00000000: 70a5 3240 bc75 dd3f 1b57 de3f adce 753f
00000010: 8b41 9c3f 2df8 6a40 935e f73f 4a42 253f
00000020: deb8 803f 06bf 9440 3cb4 2640 af8a 5840
00000030: ab39 db3f 76a5 df40 dab6 313f c749 983f
00000040: 383d e93f 9c98 ba3f 3d97 1040 dddc 5340
00000050: d937 ac40 dfd3 3640 ce6e c03f d7cc b03f
00000060: c41a fd3f 5ea8 5f40 a83b 713f b238 c03f
00000070: d3c8 5740 5992 2c40 2a17 c63f 6d20 2240
2.7913475 1.7301555 1.7370332 0.9601849 1.2207502 3.6713974 1.9325737 0.64554274
1.0056417 4.6483183 2.6047506 3.3834646 1.7126974 6.988948 0.69419634 1.1897515
1.8221807 1.4577823 2.2592309 3.3103554 5.3818173 2.8566816 1.5033815 1.3812512
1.9773793 3.4946513 0.94231653 1.5017302 3.3716323 2.6964324 1.5475819 2.533229

conv3.weight f4 [64, 32, 3, 3]
00000000: 87e8 55bc f9cc 2f3a 46f0 453b 1f49 9e3d
00000010: d2e6 143d 7da7 f03c cb5a 3a3c e288 fdbc
00000020: 717d 043d 020b 04bd dcfa 51bd 51b2 75bd
00000030: dc90 4abd 0c81 bfbc 8aa3 6bbd 56d6 09bd
00000040: 924a 43bd 2934 013d e967 593b 984e 243d
00000050: 69d4 2e3d 81cc 303d e9df 203d e3b6 df3c
00000060: db3e 473d 3f25 90bc d4d8 4abb d89f 82bc
00000070: a845 063c 5fce 89bc a6ec 823c a51d 12bc
00000080: 9541 cabc 8e8c ce3c 3919 263d cf1a b63c
00000090: 1eeb 31bd c18b 73bd dc09 87bd d0b5 90bc
000000a0: b02e 463a 4110 d73b c3f1 8e3d fcff e43c
000000b0: 5c31 ae3c bf96 7fbd 9d53 e73b 2dec 1e3d
000000c0: 3c53 2fbd 3640 93bd 3f62 f5bb aa44 b13b
000000d0: ff59 363d 0fed 14bd abe1 6fbc 418a 863d
000000e0: 91f3 a23d 38b4 5b3d 5e67 553d fdde 90bb
000000f0: 7510 43bc a8d0 7dbc 7c20 75bd 7764 d7bb
00000100: d35a 113c cff9 233a 50bb d8bc 6050 92bc
00000110: 6550 c1bd 5716 2cbc ad89 923c 8955 6e3d
00000120: b0e7 a4bc bf70 abbd 7d40 70bd 23ec 0c3c
00000130: 53fe e23d 38a5 0cbd 5e54 8bbd aeb7 003d
00000140: 4eab c93b 7a1e 933d 7f46 0c3d 41d0 0a3d
00000150: d431 473d 5e13 28bd d727 8d3c b310 96bd
00000160: 5855 34bc adde c8bd 1fcb 9e3d f31f 483c
00000170: 371f 053c 46be 1dbb 9495 0abd 6fe7 ecbd
00000180: 5347 0abd aab1 f63c 23d4 a63c 9868 66bd
00000190: 6c46 f7bc d86c ecb9 7d86 3bbc d6d9 9abc
000001a0: 1a0d 6f3d e7cf 02bc 8f1a 4c3d 23b9 963d
000001b0: a554 00bc cfaf 193c c916 28bc 9a52 403c
000001c0: bc4c b6bc 03f9 5ebd 8f4d 56bc 64ab 44bd
000001d0: d5f2 813b 80d6 8f3d 939a 503d 6305 123c
000001e0: 565c c3bc f6ed 983c 4286 79bd 1790 6b3d
000001f0: cf65 373d 1ad1 353d 7da3 8dbd 15a2 e53c
00000200: 490f fc3c 6f61 913c 1019 3abd 1bba 64bd
00000210: d216 99bb 8e6c 403d 0dc9 0d3c 7eb1 b1bc
00000220: e622 18bd b98b d9bb 4fc6 36bc ecb5 40bb
00000230: 8306 e23c 08be db3b 2682 40bd 0909 41bd
00000240: c3cf ebbc 5b7d 57bd b48c 693c 556e 18bd
00000250: 6609 853c 30a8 60bd fd2d aebb 0bcd 643d
00000260: 20b8 193d 9bd7 a6ba c12f 14bd e8a0 303c
00000270: 0213 203c 16eb ce3c 041f 0bbd 0517 37bd
00000280: 9bf5 9bbd 8962 bdbd b525 983b 20ac c23c
00000290: 14bc 943c 55e5 c33c e020 4c3d 9d74 edbc
000002a0: 9bad e8bc 73fa 8e3c 9c5d b0bb f042 b33d
000002b0: bad9 1f3d 4313 333d 7617 2c3d 36f7 523d
000002c0: 37a8 083e 232c b53b 26b0 8fbd 19ea 3cbd
000002d0: 3cc8 47bc dc79 be3b 79fd 0c3c 790c 1a3d
000002e0: 7d14 393d 73d6 103d 8c36 193d 7825 463c
000002f0: cb7d 303d 6e7a 55bd b7f7 99bd d356 a6bd
00000300: 255f dbbb 98b7 0fbc 2fe2 4cbd 7cd6 893d
00000310: 4967 633d 23b4 733c 9189 083c bedf 2cbd
00000320: a1cd e93c dd7c 08bb f234 74bd 51b9 863d
00000330: b08d 023a e3fe 48bc f1f0 523d fcec 453d
00000340: 3178 763c 783c febc f7f5 913d b925 eb3b
00000350: 1295 a73c 64a5 0a3b 9c2f 9dbc ad3c 4bbc
00000360: 7fe9 80bc ce6a 81bd 6abd d8bc 0aff 8bbd
00000370: 6312 77bd c181 a3bd 4cc5 173d bd8e 6e3d
00000380: 9aa2 46bc cf7f 9d3d 4a3e 993c 1028 48bc
00000390: 192f 7fbd 2335 b5bd 4e8f a13b e419 1a3d
000003a0: 67e4 78bd 93ab 11ba 8e58 da38 c081 e43b
000003b0: a525 e3bc c999 6a3d cd53 3d3d 255a a93d
000003c0: 2a22 61bd a99d 78bc 61f6 50bd 6154 32bb
000003d0: 7df6 d4bc af6d c73c b6bd 36bd 843a bebc
000003e0: ce5c a4bd 1af5 a5bc 8d49 e2bc 703c a73c
000003f0: 15ad 333d 0578 fa3c 20f4 3c3d 3377 4ebc
-0.013055927 0.00067062635 0.0030203029 0.077287905 0.03635294 0.02937674 0.011374186 -0.03094906
0.032346193 -0.03223706 -0.05126463 -0.05998451 -0.049454555 -0.023376964 -0.05752901 -0.033651672
-0.047678538 0.031543884 0.0033173508 0.040114015 0.04268304 0.04316378 0.039276037 0.027308887
0.048643928 -0.017595885 -0.0030951994 -0.01594536 0.008195318 -0.016822038 0.015981983 -0.008918201
-0.024689475 0.025213506 0.040551398 0.02222958 -0.043437116 -0.05945945 -0.065936774 -0.01766482
0.00075600576 0.006563217 0.06979706 0.027954094 0.02126377 -0.062399622 0.007059528 0.038799454
-0.042803988 -0.07189982 -0.0074885185 0.0054097967 0.04451942 -0.03635889 -0.014641206 0.065693386
0.07956613 0.053638667 0.05210053 -0.0044211135 -0.011905779 -0.015491642 -0.059845433 -0.0065732556
0.008871752 0.0006255181 -0.026456505 -0.017860591 -0.09439162 -0.010503373 0.017887915 0.05818704
-0.020130008 -0.08371114 -0.05865525 0.008601221 0.11083665 -0.034337252 -0.06803201 0.03142517
0.0061544543 0.07183547 0.034246918 0.033890013 0.048631504 -0.041034095 0.017230911 -0.07327404
-0.011006676 -0.09808097 0.07753586 0.012214649 0.008125118 -0.002406971 -0.033834055 -0.1156758
-0.033759426 0.030114014 0.020364827 -0.056252092 -0.030184947 -0.00045094523 -0.011445639 -0.0189027
0.058362104 -0.007984138 0.049830016 0.07359531 -0.007832681 0.009380295 -0.010259339 0.011738444
-0.022253387 -0.054436695 -0.013080015 -0.048015013 0.0039657154 0.070233345 0.050928663 0.008912417
-0.02384774 0.018668156 -0.060919054 0.05751046 0.044774827 0.044388868 -0.069159485 0.028031388
0.030769007 0.017746655 -0.045434058 -0.055841547 -0.00467191 0.046978526 0.008653891 -0.02169108
-0.037142657 -0.0066389707 -0.011155679 -0.002940531 0.027590996 0.006706003 -0.04699912 -0.047127757
-0.028785592 -0.052609783 0.014254738 -0.037214596 0.016239833 -0.054847896 -0.005315541 0.055859607
0.03752911 -0.001272905 -0.036178354 0.010780551 0.009770157 0.025258582 -0.033965126 -0.044699688
-0.07615205 -0.0924731 0.004643167 0.023763716 0.018156089 0.023913065 0.04983604 -0.02898627
-0.028403094 0.017453408 -0.005382253 0.08753002 0.039026 0.04371954 0.04201456 0.05150529
0.13345419 0.005528943 -0.070160195 -0.04612169 -0.012193736 0.0058128666 0.008605354 0.03760955
0.045185555 0.035360765 0.037405536 0.012093894 0.043088716 -0.05211871 -0.07517951 -0.08122029
-0.0066946917 -0.0087717995 -0.050020393 0.06730363 0.055518422 0.014874491 0.00833358 -0.042205565
0.028540434 -0.0020826377 -0.059620805 0.06578315 0.00049802195 -0.012267801 0.05149931 0.04832171
0.015043304 -0.031034693 0.07126992 0.0071761278 0.020456824 0.002115571 -0.019187741 -0.012404603
-0.01573634 -0.063191995 -0.026457507 -0.06835754 -0.06032027 -0.07983733 0.03705339 0.058241595
-0.012123728 0.07690393 0.01870646 -0.012216583 -0.062300775 -0.08848026 0.0049304133 0.037622347
-0.060764696 -0.00055568776 0.00010411545 0.006973475 -0.027727911 0.057275567 0.046222497 0.08269147
-0.054964222 -0.015174308 -0.051016215 -0.0027210938 -0.025996441 0.024344293 -0.044614516 -0.023221262
-0.080255136 -0.020258475 -0.027622962 0.020414561 0.043866236 0.030574808 0.046131253 -0.0126016615

conv3.bias f4 [64]
00000000: ff8d a33b 3e59 633a d42e 483c b767 a1bc
00000010: 6d73 54bd 9e13 debc b7a0 bcbb ddbb 123d
00000020: c1c4 753c b0da 943c 8726 77bd e18d 48bd
00000030: 422f 43bd 83cb 87bc dfcb f9bc e73f 1c3d
00000040: 11c2 6cbd 89f4 ec3c 083e 37bb 23a1 2fbc
00000050: ab60 20bd d0e8 67bd 9bfb 443c 5ba7 493d
00000060: 4694 f5bc 22fc 273d ed4f e3bb c648 c5bc
00000070: 703a 4bbd db71 10bd e0db 083d 3cf6 673d
00000080: 3d2a 723d 4a5c 61bc fb22 88bc 884b f9bb
00000090: e5d5 193d d64c 0c3d 010c d23c 6b65 533c
000000a0: 6e1f 07bc a749 9dbb 9631 5a3d 1ffc c83c
000000b0: 36fe 4c3d ecc2 bc3c a098 0cbd f5f3 5a3d
000000c0: 3d49 293d b58e 6cbb 915a 5e3d a965 b9bc
000000d0: 63d9 3cbb 84ab 79bd 33b9 86bc 6bdf d53c
000000e0: 9852 583b 5330 57bd 7fd0 573d be26 52bd
000000f0: a734 9b3a b549 253c 5f5d f53b ea8c 52bd
0.0049912925 0.0008672661 0.012218196 -0.019702775 -0.05186789 -0.027108964 -0.0057564634 0.03582369
0.015000523 0.018170685 -0.060339477 -0.04896343 -0.04765249 -0.016576534 -0.030492721 0.03814688
-0.057802264 0.028925197 -0.0027960557 -0.01071957 -0.03915469 -0.05661851 0.012022878 0.04923187
-0.029977929 0.041011937 -0.006937018 -0.024082553 -0.049616277 -0.03526483 0.033412814 0.05663131
0.059122313 -0.013754914 -0.016618242 -0.007607881 0.0375575 0.034252964 0.02564049 0.012902598
-0.0082472395 -0.00480004 0.053269945 0.024534283 0.050047122 0.023042165 -0.034325242 0.05345531
0.04132961 -0.0036095802 0.05428559 -0.022631483 -0.0028816096 -0.060954586 -0.016445732 0.02610751
0.0033008214 -0.05253632 0.05268907 -0.05130648 0.0011841253 0.010088374 0.0074879373 -0.051403917

conv3_bn.weight f4 [64]
00000000: 259a 823f d3b2 733f 3695 713f 379a 663f
00000010: d128 803f 5e6e 723f cd64 7a3f 418d 7f3f
00000020: 1811 743f cba8 823f f481 863f 7177 793f
00000030: 059c 7f3f 36a6 813f ae68 883f cde7 7d3f
00000040: 4093 7b3f 2c0a 7c3f c9da 7e3f 2f0c 7d3f
00000050: 3915 753f 7285 7b3f 9e00 6f3f 104f 793f
00000060: 69e0 753f bd23 803f 583b 703f 0857 763f
00000070: e613 893f e175 773f 31ec 843f b1f8 7f3f
00000080: c43c 853f 7d46 863f 1729 8a3f 4c8c 7d3f
00000090: 5829 813f c14b 6f3f 7445 773f 9cd5 803f
000000a0: dd7c 7e3f 9f75 7a3f 3328 7c3f a7e1 833f
000000b0: ccd2 7a3f e238 7e3f b092 7d3f 7edb 783f
000000c0: 6a6b 823f d859 793f 1975 6b3f dc8c 803f
000000d0: 30a7 833f a143 773f d997 823f 4e26 7d3f
000000e0: cf4f 883f 6b21 843f db13 893f 43ec 813f
000000f0: 78ae 803f d4c2 863f b2bb 803f 17c4 723f
1.0203291 0.9519474 0.943683 0.90079063 1.0012456 0.94699657 0.9781006 0.9982491
0.95338583 1.0207762 1.0508409 0.9744788 0.9984744 1.0128849 1.0656946 0.99181825
0.9827156 0.9845302 0.9955259 0.98846716 0.9573551 0.98250496 0.93360317 0.97386265
0.9604555 1.0010906 0.9384055 0.9622655 1.0709198 0.96664244 1.038458 0.9998885
1.0409169 1.0490261 1.079379 0.990422 1.0090742 0.93474966 0.9659035 1.0065188
0.99409276 0.97835726 0.9849884 1.0303239 0.979779 0.99305546 0.9905195 0.9720992
1.018903 0.97402716 0.9197555 1.0042987 1.0285397 0.9658757 1.020259 0.98886573
1.0649356 1.0322698 1.0709184 1.0150226 1.0053244 1.0528207 1.005728 0.9483046

conv3_bn.bias f4 [64]
00000000: d02f 7c3c 9804 73bd 282a 81bd b742 f9bd
00000010: adb6 e7bc 4874 9bbc 172c d0bd c6cd c03c
00000020: 6a4c cbbd b963 853b d430 9abd 351f 1dbe
00000030: 813f 31bc 78f9 86bd 315e 4a3c 806b f139
00000040: 1658 b3bb 074f 2abd 039c f8bd e5a2 c2bd
00000050: 5afe c5bb e1b4 c8bd 607f 87bd 787a a9bc
00000060: 3a42 68bc acc1 933c f0fb 0fbd 1ebe 84bd
00000070: dd9a acbc f6ab c1bd 2bf8 edbc ba54 7dbd
00000080: 3307 003d fa50 113c 4ae6 82bc 2714 0fbd
00000090: d19d 90bd 9e34 6dbd 3fcd 0dbe e4ed 2e3d
000000a0: a6bb 033d c237 02bd bd9b e7bc 5bd3 ebbb
000000b0: 8a55 26bd 26f4 16bd cd37 86bd 18ff 8dbd
000000c0: a266 15be af4a 95bd 9780 26bd 376a cfbd
000000d0: 05a3 f83a f48b 96bd 4ac0 e73c cf13 0b3c
000000e0: abc4 c8ba 1121 943c 97e1 da3b 7577 b4bd
000000f0: e7c7 48be ea28 bebc 0a44 ccbd ef8b 7dbd
0.015392259 -0.059330553 -0.06306869 -0.12170928 -0.028285349 -0.018976346 -0.101646595 0.02353562
-0.09926684 0.0040707258 -0.075288445 -0.15343936 -0.010818363 -0.06590551 0.012351559 0.00046047196
-0.005473147 -0.041579273 -0.12139132 -0.09503726 -0.006042284 -0.09800125 -0.06616092 -0.02068828
-0.014175946 0.018036686 -0.035152376 -0.064815745 -0.021069938 -0.09456627 -0.029049 -0.06184838
0.031256866 0.008869404 -0.015978951 -0.03493133 -0.07061351 -0.057911508 -0.13847826 0.04270734
0.032161377 -0.031791456 -0.028272504 -0.0071968264 -0.04060892 -0.03685393 -0.06553612 -0.06933421
-0.14589933 -0.072896354 -0.040649977 -0.10127681 0.0018969482 -0.07350913 0.028289933 0.008488609
-0.0015317401 0.018082174 0.0066797244 -0.08811847 -0.19607507 -0.023212869 -0.09973915 -0.06190103

conv3_bn.running_mean f4 [64]
00000000: 557c c4be 6482 d9be 9787 94bf b41b 8d3f
00000010: 4336 9d3e afce 6cbf 5783 4f3f aae0 fdbe
00000020: 8d85 483f a319 9ebf edc8 603f d302 423f
00000030: 985f 88be f3fa 16bd e2f8 76bf 8df0 b3be
00000040: 0999 09bf f37a 933c 3619 bb3d da8a dabd
00000050: 3e62 4fbf 96d1 a7be 9e0c 1cbf 7816 22bf
00000060: 6e30 a8be 9e76 1abf bc07 47bf 7e25 b53e
00000070: fd87 62be a74a f23e 8c19 833d e6e8 32bf
00000080: 22a8 80bf cc55 13bf 239e 173f 6f15 22be
00000090: 29c8 14be 42ee a3bf ba90 923f 27e9 653f
000000a0: 6dc9 86bf e2b3 38bf bc47 11bf a99c 4cbf
000000b0: 65dc 38bf ab68 9d3e 72b8 fabc 27a9 bb3f
000000c0: b6b1 17bf ec2e 7ebf 2953 7b3e 13f6 313f
000000d0: 5b29 45bf 6941 dabd 8032 3abf 748a 6dbe
000000e0: 2f29 ab3e 33dc 97bf 31f3 f03d 9496 b73e
000000f0: 12b4 dc3e 8d94 4c3e 7ebb 1fbd 1f93 a93d
-0.38376108 -0.42482293 -1.1603879 1.1024079 0.3070546 -0.92502874 0.81059784 -0.49585468
0.7832878 -1.2351574 0.8780659 0.7578556 -0.26635432 -0.036860418 -0.96473515 -0.35144463
-0.5374914 0.018002963 0.09135668 -0.10671015 -0.8100928 -0.3277709 -0.6095675 -0.63315535
-0.3284945 -0.60337245 -0.77746177 0.35380167 -0.22122188 0.4732258 0.06401357 -0.69886625
-1.005131 -0.5755279 0.5922567 -0.15828489 -0.1452948 -1.2807086 1.1450417 0.8980889
-1.053022 -0.7214948 -0.5675008 -0.79926544 -0.72211295 0.30743918 -0.030605529 1.4660996
-0.5925554 -0.9929035 0.24543442 0.69516104 -0.7701623 -0.10657007 -0.72733307 -0.23197347
0.33429858 -1.1864074 0.11765135 0.3585707 0.43106133 0.19978543 -0.038997166 0.08280014

conv3_bn.running_var f4 [64]
00000000: 86fe f73f 6623 2240 fbdd 5c3f b557 2740
00000010: ac6b 2d3f fb4e de3f 0da1 2b40 ad68 0540
00000020: bc79 cb3f 466e e73f 35fc 0540 a502 d73f
00000030: f49e 5440 9973 7d3f aa29 7940 89cf 633f
00000040: bb67 ce3f 6a1a f53f b86b cc3f 5b09 f03f
00000050: c1e6 e33f 9b9b 8f3f 2d48 8e3f 650b c03f
00000060: 0b37 ad3f f7bf ce3f db71 253f 6476 8e3f
00000070: f474 ad3f 0459 3f40 3d4f 3640 c05c ee3f
00000080: 3a4c c33f 1269 7140 09bc 1540 2543 8f3f
00000090: c4ca 6e3f 2206 2940 703d 2040 4626 a53f
000000a0: 2574 f83f e342 bf3f 32c3 4c40 32d1 9740
000000b0: fee5 0e40 cbd7 ce3f 7639 0740 945d 0840
000000c0: f3e9 633f 7982 0140 7de6 5e3f e5d9 0040
000000d0: bf2f 6f40 5fc3 9b3f a236 1f40 17a1 8b3f
000000e0: b4b1 0040 5362 1640 d666 d83f 9e95 2140
000000f0: 9adb af3f 615c 0540 a2e0 893f a343 6c3f
1.9374549 2.5334105 0.86276215 2.6147282 0.6774242 1.7367853 2.6817048 2.084514
1.5896525 1.8080528 2.0935185 1.6797682 3.3222017 0.99004513 3.893168 0.8898855
1.6125406 1.9148686 1.5970373 1.8752855 1.7804796 1.1219362 1.1115776 1.5003477
1.3532423 1.6152333 0.64626855 1.112988 1.3551316 2.989808 2.8485863 1.8622055
1.5257638 3.772038 2.3396018 1.1192366 0.93278146 2.6409993 2.5037498 1.2902305
1.9410444 1.4942287 3.1994138 4.7442865 2.2327876 1.6159605 2.1128821 2.1307116
0.89028853 2.0235884 0.8707045 2.0132992 3.7372892 1.2168998 2.4877095 1.0908536
2.0108461 2.3497512 1.6906383 2.524757 1.3738892 2.0837634 1.0771677 0.92290705

conv4.weight f4 [64, 64, 3, 3]
00000000: 6058 58bc 4bdb 85bc d857 f13c 3e37 603d
00000010: 4804 653b 1c06 3f3d 6323 273d be03 7e3d
00000020: 6803 2c3c b930 6bbd dc16 02bd 86fe 6bbc
00000030: 1a18 293d e0e0 813d 02b4 b03c d8c9 a3bc
00000040: 8748 3f3d a8c3 b8bb 2864 a5bc c5d3 e63c
00000050: 03cd 883c eb9e 89ba ac56 44bc 43d3 4dbb
00000060: 1788 a6bc 6a2a 9b3c 2287 473d 72a5 2a3b
00000070: 1022 d83c 0b3e c5bc eef2 cabc dfef 3bbd
00000080: e171 8cba 281a 513c 7442 533c 4ec6 6bba
00000090: 6e05 303d 8c42 0bbc ca75 bb3b 5a9a 49bd
000000a0: 9ada 94bc 9d64 90bc c889 113d 2c45 873d
000000b0: c9de 5bbc 77d3 07bd 9206 2cbc c458 dc3c
000000c0: 6bd5 6ebc 6f2d b2bc a24d 253d 784e 95bc
000000d0: 388b 413c 74b1 0ebc e7ee 1ebc d489 683d
000000e0: 4964 f93c 29a6 9fbc f5d6 0fbc fb7f c4bc
000000f0: dc0a 19bc a8f8 df3b f605 c73c 384b da3c
00000100: c112 d33c 3ed9 403d 55dd 0dbd 2e02 2fbd
00000110: acfe 8a3b cb4b 023d 8b46 c8bc 0f3d b2bc
00000120: 4f23 493c cc19 253c 7a24 11bd 6ca5 053d
00000130: 5058 f83c 2e3b 143b 2ed7 513d fd1b 413d
00000140: 00a0 713c 43f6 bf3c 1e55 c4ba 5429 c53c
00000150: e539 b7bc 3b7c 22bd 9e22 0abd f575 62bc
00000160: cfa8 1b3d 826c 52bc f527 81bb 1101 183c
00000170: 25ba a5bc 47f3 8e3d 6a1b 013d ee92 263d
00000180: 6bfc b23c ec82 193d 3310 e03c 1084 b4bc
00000190: a516 c93c 4d8a edbc d18c 1c3d 3642 d5bc
000001a0: 2c8b 003c 81a0 98bc 3b7f c9bc 028d 0bbd
000001b0: 3ed1 bcba ab97 64bd 87c7 4dbb f762 84bc
000001c0: de5c 873b 6a23 043d 86d5 343d 52d9 263d
000001d0: 0fa2 0bbc 6db9 4d3d 74d3 7d3c 4637 0d3b
000001e0: 2240 d3bc 4a6b a2bb 31fc 8dbc c010 8a3c
000001f0: a46b 0bbc 7065 34bc 66fc 8c3c 417e 793c
00000200: ad47 093d 8920 ab3d 1609 5e3d d42a bd3d
00000210: b702 8039 0383 96bb 4a2b 423d 2bb7 d33c
00000220: ba95 ca3a e684 103d 6c36 98bd 67e8 78bd
00000230: 1fd2 ba3b 6450 b73c dfba 393d e0e3 1d3d
00000240: b2af 1d3d 5cb5 f93c c213 babb 95d1 183d
00000250: 9489 2d3a 3d09 323d 59c0 883d 0943 783b
00000260: d6d9 673d c4e4 4fbd 2432 74bd 3f76 35bd
00000270: 367e ae3c dbb1 4a3c f1d3 4a3d 5767 513d
00000280: 7802 183d fdf0 703d 6fe0 303c 25c8 353d
00000290: 0bd0 103d 77fe aa3c 57d2 5a3c 174b f7bc
000002a0: 427c 80bc 8521 bdbc 95ec 6abc 4ecb 043d
000002b0: a6e7 813d a8d4 003d b0e6 bd3a 7ecd 613d
000002c0: 5246 ea3c 1a7b 763d 511a a1ba 9667 f1ba
000002d0: b9a5 31bc 4014 25bd 148d d3bc e8a2 e6bb
000002e0: f8d5 623b fc15 513d 206a 13bd b0b4 603c
000002f0: c319 38bd 079d e33b 4329 053b e921 84bc
00000300: c75b 2a3d 9421 a73c 60b2 723c bc62 f3bc
00000310: 5469 6d3b 5615 b33b c325 243b 4ef0 dbbc
00000320: fb04 be3c f622 a63c 28e9 ebbc d227 403d
00000330: fc52 74bc 66e1 a03c db24 27bc 3e39 ea3c
00000340: 7156 c63c 1987 6cbc 5123 383d 0103 dc3c
00000350: db34 2abd 6f5d 8abc 9755 e23c 7dee 0e3d
00000360: 8749 f03b 8a33 f93b 099e 1ebd 156a acbb
00000370: ba88 9d3c e103 1b3d 15a9 47bc db58 10bd
00000380: 90ef f13b bf86 ea3c 163b 803c b54c 613d
00000390: 1bb1 f93b 252e b03c 3823 933d 78ef d1bc
000003a0: cae7 5cbd 8df8 d2bc d4da 99bc f5ca fa3b
000003b0: 2604 32bc fc9e 2f3d 1713 bb3c 47db 403c
000003c0: 82b8 debc 4476 fe3c fe00 fb3c 038d 92bc
000003d0: 5967 663b 1d2a 1e3d 8dd8 5c3d 36e0 8f3c
000003e0: eb5f 2bbc 4ab3 6a3c 3d80 f73c 2288 5a3d
000003f0: fd43 f9bc dfeb 51bc 7993 183c 8489 d43d
-0.013204664 -0.016339919 0.029460832 0.054740183 0.0034945179 0.046636686 0.04080523 0.062015288
0.010498859 -0.057419512 -0.03176008 -0.014403945 0.04128275 0.063417196 0.02157021 -0.019993708
0.046700027 -0.0056385584 -0.02018936 0.028177151 0.01669932 -0.0010499632 -0.011983555 -0.003140644
-0.020328565 0.018941123 0.048712857 0.0026038554 0.02638343 -0.024077436 -0.024774041 -0.045883056
-0.0010715091 0.012762584 0.012894262 -0.0008994088 0.04297393 -0.008499753 0.0057208287 -0.049219467
-0.018170644 -0.017626101 0.03553179 0.0660499 -0.013419815 -0.033160653 -0.010499613 0.026897795
-0.01457725 -0.02175018 0.04035724 -0.018225893 0.0118129775 -0.0087093 -0.009700513 0.05677207
0.030443328 -0.019488411 -0.008779277 -0.023986807 -0.009340968 0.006835062 0.024294835 0.026647195
0.025765778 0.04708218 -0.034634907 -0.042726688 0.004241785 0.031810563 -0.0244477 -0.02175763
0.012276485 0.010076951 -0.035435177 0.03262846 0.030315548 0.0022618282 0.051230602 0.047145832
0.01474762 0.023432856 -0.001497898 0.024067558 -0.022366473 -0.039669257 -0.03372442 -0.013822068
0.038002785 -0.012843253 -0.003941531 0.009277598 -0.020230362 0.06979995 0.031520285 0.040667467
0.021848878 0.037478372 0.027351474 -0.022035629 0.02454693 -0.028996611 0.03822023 -0.026032548
0.007845681 -0.018631222 -0.024596801 -0.034070022 -0.0014405621 -0.055808704 -0.0031399445 -0.016160471
0.0041309437 0.032260336 0.044148944 0.040734597 -0.0085225245 0.050225664 0.015492309 0.0021547838
-0.025787417 -0.0049566375 -0.017332168 0.01685369 -0.00850955 -0.011010513 0.017210197 0.015227855
0.03351562 0.08355815 0.054207884 0.092366844 0.00024416085 -0.0045932545 0.047404565 0.025844177
0.0015455999 0.03528299 -0.07432255 -0.06076851 0.005701318 0.0223772 0.04534423 0.038547397
0.038497634 0.030481987 -0.005678625 0.037309248 0.0006619927 0.04346584 0.066773124 0.0037881753
0.05660423 -0.050755277 -0.05961813 -0.04430222 0.021300416 0.012371506 0.04951853 0.051123943
0.03711173 0.058823574 0.010795697 0.044380326 0.035354655 0.020873291 0.013355813 -0.030187173
-0.01568425 -0.023087272 -0.014338632 0.03242045 0.063430116 0.031452805 0.0014488306 0.055127613
0.028597984 0.060175993 -0.0012291168 -0.0018417712 -0.010842734 -0.040302515 -0.025824107 -0.007038463
0.0034612399 0.051046357 -0.03598988 0.013714954 -0.044946443 0.0069462094 0.0020318783 -0.01612945
0.041591432 0.020401753 0.014813036 -0.029710166 0.003622611 0.00546519 0.0025046922 -0.026847985
0.023195734 0.020280343 -0.028797701 0.046912976 -0.014912363 0.019638728 -0.010201658 0.028591748
0.02421114 -0.014436507 0.044955555 0.026856901 -0.041554313 -0.016890256 0.027628703 0.03489541
0.007332984 0.007605021 -0.038724933 -0.0052616694 0.019230235 0.037845496 -0.012186308 -0.03524099
0.0073832944 0.028628705 0.015653174 0.055004794 0.0076199896 0.021506378 0.07184452 -0.025626883
-0.05393199 -0.025753284 -0.018781103 0.007653589 -0.010865247 0.04287623 0.022836251 0.01177103
-0.02718759 0.031062253 0.030640122 -0.017889505 0.0035156815 0.03861438 0.053917456 0.017562967
-0.01045988 0.014324972 0.030212516 0.053352483 -0.030427927 -0.012812584 0.009312504 0.103777915

conv4.bias f4 [64]
00000000: 5c73 8c3c 9034 cdbb 7b9e 60bc bd22 0d3d
00000010: fa93 2cbd 91e6 15bc 6695 02bd e417 033c
00000020: caeb 95bc 2dd2 6f3b 08fb bbbc af30 8bbc
00000030: 8640 acbc 1d90 97bc 412d a9bc 5a77 843b
00000040: f756 e7bc 88c2 01ba 573a 4e3c 4d34 0abd
00000050: a571 a33c 6af0 bbbc 35a9 a7bc 5212 193d
00000060: 8574 ad3b 1ada 03bc 1c91 e53c 016c e33c
00000070: bf73 193d 97d8 80bb e218 8f3c 0b27 ef3c
00000080: 8d4c a63c 5312 02bd 2e6d bebc ee60 79bb
00000090: 4e9a 91bc f070 17bd ad23 033d 333b f4bc
000000a0: 7d7f 473c 3b00 dbbc 9c2b e63c 1ccd 2c3d
000000b0: 728b 153b 1cdf 8e3c cb07 0bbd b4c0 1fbd
000000c0: b43d a3bc 2a7d 0c3d 1760 953b ff0c 123d
000000d0: 1b35 403c 9cf8 153d 14b3 e73c 3a5a 943c
000000e0: 65b8 73bc 1d39 1cbd cf33 0cbd eddc f338
000000f0: 956a 1c3d 709c dabc 34fe 883b 0bd1 aebc
0.017144851 -0.0062623695 -0.01370966 0.034456957 -0.04213331 -0.00914921 -0.03188076 0.008001301
-0.01830091 0.003659378 -0.02294685 -0.016990988 -0.02102686 -0.018501336 -0.020651462 0.004042548
-0.02823971 -0.0004949947 0.0125871515 -0.033741284 0.01995165 -0.022941787 -0.020466426 0.037370987
0.005293431 -0.008047605 0.028023295 0.027761461 0.0374639 -0.0039320695 0.01746792 0.029193422
0.020300174 -0.031755757 -0.02324542 -0.003805216 -0.017773774 -0.03697294 0.032016445 -0.029813385
0.012176392 -0.026733508 0.028096966 0.042187795 0.0022818712 0.017440371 -0.03394298 -0.039002135
-0.019926883 0.034299053 0.004558574 0.035656925 0.011731411 0.036614046 0.028283633 0.01810943
-0.014875506 -0.038140405 -0.034229096 0.000116282936 0.038187582 -0.026685923 0.004180694 -0.021339914

conv4_bn.weight f4 [64]
00000000: a78f 903f 67f1 893f 65b7 843f 44ca 833f
00000010: 11cc 713f 4b2d 923f d153 8c3f 269c 8a3f
00000020: c45d 893f c026 853f 216b 813f 3214 863f
00000030: 2afb 863f 4a7f 853f 0fb0 813f 9251 7c3f
00000040: 3239 873f fd24 8b3f eb10 7d3f 35df 823f
00000050: 1885 823f 2042 853f 1b4b 783f e9cf 823f
00000060: 9625 793f 1c40 853f 47c8 853f f1a4 853f
00000070: 2422 843f 25c5 853f afc7 833f 5f13 883f
00000080: 0eb1 863f caf2 833f bdb2 863f 0aad 863f
00000090: 1834 873f 208f 873f 0b68 843f 31ec 813f
000000a0: 708c 863f be00 853f d014 853f ceae 6f3f
000000b0: 2be8 823f dc52 963f 25bf 853f 1af3 863f
000000c0: d02e 8a3f c56e 833f 8703 8c3f a4c2 843f
000000d0: c329 853f 7877 8b3f b7c5 8c3f ee68 7f3f
000000e0: 2d9f 7d3f 1cd8 7f3f 296a 823f 99f6 803f
000000f0: 2b9f 843f 5468 853f 109f 943f 3006 863f
1.1293839 1.0776795 1.0368468 1.0296102 0.94452006 1.1420072 1.0963079 1.0828903
1.073174 1.040245 1.0110818 1.0474913 1.0545399 1.042947 1.0131854 0.98561966
1.056433 1.0870663 0.9885394 1.0224367 1.0196867 1.0410805 0.969896 1.0219699
0.97322977 1.041019 1.0451745 1.0440961 1.0322919 1.0450789 1.0295314 1.0630912
1.0522783 1.0308468 1.0523297 1.0521557 1.0562773 1.0590553 1.0344251 1.0150205
1.0511608 1.0390851 1.0396976 0.93626106 1.0227102 1.1744037 1.0448958 1.0542939
1.0795536 1.0268179 1.0938576 1.03719 1.040337 1.0895834 1.0997838 0.99769485
0.9907101 0.9993913 1.0188648 1.0075256 1.0361074 1.0422463 1.1611042 1.0470638

conv4_bn.bias f4 [64]
00000000: 9ee9 02bd 748d 90bc 8716 73bd f5c4 a5ba
00000010: 8f7b 15bd 9648 5ebd bed5 f1bc a21b 1fbd
00000020: bc8a 29bc b2ed e2bb e1a2 ffbc 980d 49bd
00000030: d327 87bc 3e18 ddbc 0d95 9fbb b2c8 3fbd
00000040: db07 94ba 550d 81bd a23e e3bc 63a4 afbc
00000050: aafb 6dbd e323 883b a78e c5bc e285 12bd
00000060: e440 03bd 5eb8 01bc 0286 2c3b cef3 46bc
00000070: 96ab 0ebc 3b03 27bc e980 c4bc 9be3 8f3c
00000080: 5a55 933a 7f85 b6bb ec1e bfbc 18fc 41bd
00000090: 4ba3 1ebd 837c 7ebd 0ce7 09bd 4c94 18bd
000000a0: 793d 2dbc 828a abbc bc15 28bd e661 67bd
000000b0: eb40 8b3c 21af d0bc aede 86bc 51ae 1eba
000000c0: e794 84bc e5d6 7fbd 91ff 2cbd 9595 47bc
000000d0: e932 e3bb 6a1f ebbc 75ff b63c 6f83 a5bc
000000e0: d16a b03a 98cf 08bc 5505 21bd 0fc9 8bbd
000000f0: b3b9 01bd 3e8b 52bd 0f40 f8bc 8c4c b73b
-0.031961076 -0.017645575 -0.059347656 -0.0012647199 -0.036494788 -0.054268442 -0.029520866 -0.038844712
-0.010348018 -0.006925308 -0.031205596 -0.04908523 -0.016498482 -0.026989099 -0.004870063 -0.046822257
-0.0011293845 -0.06301371 -0.027739827 -0.02144069 -0.058101334 0.0041546687 -0.024115874 -0.03577221
-0.032044306 -0.007917492 0.0026324992 -0.0121430885 -0.008707901 -0.010193641 -0.02398725 0.017564585
0.0011240647 -0.005570113 -0.023330174 -0.047359556 -0.038729947 -0.062130462 -0.03366761 -0.037250802
-0.010573738 -0.02094007 -0.041036353 -0.056489848 0.016998729 -0.025474133 -0.016463604 -0.0006053197
-0.016184283 -0.0624608 -0.042235915 -0.012181659 -0.006933559 -0.028701503 0.022338608 -0.020204274
0.0013459568 -0.008350275 -0.039311726 -0.06825458 -0.031671237 -0.051402323 -0.030303983 0.005593842

conv4_bn.running_mean f4 [64]
00000000: 40ed 5f40 0d55 833f 47a1 7a40 52e7 dbbf
00000010: 7dc9 8ebf 5ab7 2640 bce5 1840 cd0c 6b3f
00000020: a907 a53e a88c dbbd cb11 e8bf 7389 0d40
00000030: 1252 0940 29fa 8a3f 341b 04c0 1a9f fbbf
00000040: 7dcf b2bf c616 073e 7c94 f2bf bf08 253f
00000050: 3703 14c0 1c22 a63f bf47 24c0 c3dd 0f40
00000060: dd6c dabf 3dae 9c3e 2490 1ac0 a761 1040
00000070: 8931 ccbf 7543 f33f 9c3f 5d3f ea92 e2bf
00000080: 4177 813e b571 a93f c4e0 fc3f 986c 0d3e
00000090: 28b3 3840 9f8f 2640 526d f5be bc93 bdbf
000000a0: 7307 353f 6514 293e a269 1240 d8b0 8f3f
000000b0: f4fb 90c0 3bb4 1440 da1d b7bf 9f15 363f
000000c0: 3496 a03f 5d55 6140 3d38 3b40 ec19 18c0
000000d0: e46e 40bf 0649 0440 9607 8b3d 5270 62bf
000000e0: 28e1 50c0 e681 25c0 0285 493f a9ba f43f
000000f0: 737f da3e 3acd 4d40 e3f9 1840 aeaa 64c0
3.4988556 1.026033 3.9160936 -1.7179968 -1.1155239 2.604941 2.3890219 0.9181641
0.32232407 -0.107201874 -1.813043 2.2115142 2.1456342 1.0857593 -2.0641603 -1.9657929
-1.396957 0.13192281 -1.8951564 0.6446647 -2.3126962 1.2979159 -2.566879 2.2479103
-1.7064472 0.30601683 -2.4150476 2.2559602 -1.5952617 1.9004961 0.86425185 -1.7701085
0.25286296 1.3237826 1.9756093 0.13810956 2.8859348 2.602516 -0.47934967 -1.481071
0.7071449 0.16511686 2.2876973 1.1225843 -4.530756 2.3235004 -1.4305985 0.7112674
1.2545838 3.5208352 2.9253075 -2.3765821 -0.75169206 2.066957 0.06788556 -0.8845264
-3.2637424 -2.5860534 0.7871858 1.9119464 0.4267536 3.215651 2.3902519 -3.5729175

conv4_bn.running_var f4 [64]
00000000: 0571 0b40 6f3b 3e40 99ef 3f40 6034 4440
00000010: 63c6 4d40 d0b2 4040 6235 6040 4e4b 0a40
00000020: d0a2 fd40 0902 ae40 971c 2340 dea5 9f40
00000030: 2f43 c33f c8ec 9f40 6386 1b41 8df1 0240
00000040: 683b 7f40 29f6 cd40 8745 8040 a9f7 2d40
00000050: a95c 2340 92cf 6740 6faa f040 40ba 0740
00000060: 7e8f 4940 18a7 0340 de9c 6440 497a 0f40
00000070: e4c4 4a40 c12d 9d40 658c 5340 0702 4040
00000080: ee2a 8840 ad26 9d40 bd6d 7840 74d5 4d40
00000090: 27a1 3740 7335 7f40 16dd 6540 fdd8 6f40
000000a0: f206 6d40 7f26 0e40 b3f9 7d40 0268 8c40
000000b0: 16cd e640 2c33 2240 88d0 9d40 485a 9240
000000c0: 0ada 0e40 d6b2 6940 2b79 3840 0c9d 8840
000000d0: abe8 2740 965d 9f40 5fa2 c240 2d7d 9340
000000e0: e715 a640 650f 9740 7c89 2340 27e8 b13f
000000f0: 136d 8940 68a0 8240 11b5 4440 9694 3140
2.1787732 2.9723775 2.9989989 3.0656967 3.2152336 3.0109138 3.5032582 2.1608462
7.9261246 5.4377484 2.54862 4.9889975 1.5254878 4.997654 9.720309 2.045993
3.9880009 6.436299 4.008487 2.718241 2.5525305 3.622044 7.520805 2.1207428
3.149383 2.0570736 3.5720744 2.2418387 3.1682673 4.911835 3.305444 3.0001237
4.2552404 4.910971 3.881698 3.2161531 2.869211 3.9876373 3.591619 3.747619
3.703549 2.2210996 3.9683654 4.3876963 7.212535 2.5343733 4.9317055 4.5735207
2.232058 3.6515403 2.8823955 4.2691708 2.623576 4.980174 6.0823207 4.6090302
5.1901736 4.720629 2.5552664 1.3898972 4.2945647 4.082081 3.0735514 2.774694
